model.pth (torch, 378536 bytes, 8 tensors)

conv1.weight f4 [32, 1, 3, 3]
-0.3734746 -0.7014711 -0.38151488 -0.29394665 -0.15026481 -0.46390945 0.0905115 0.48518014
0.35289967 0.15884052 0.15098977 -0.69031733 0.0066397213 -0.22434059 -0.080085 0.3409311
0.060883764 -0.6544895 0.032833323 0.3580498 -0.25029576 -0.5149684 0.3951806 -0.76345277
-1.5236745 -1.0232068 -2.0242767 -0.30921054 0.3443329 0.25229335 0.44467565 0.4000272
-0.09134881 0.604156 -0.33861342 -0.3545064 0.00454588 0.026989657 -0.7316047 0.034785543
0.16057824 -0.34664842 -0.56096387 0.25839314 0.11164701 -0.003637199 -0.33641335 -0.3592116
0.16642855 -0.09446039 -0.40747502 -0.17249039 0.12707709 -0.4884008 -0.16422737 -0.15691045
-0.73884386 -0.25271508 -0.4645 -0.6971288 0.039580587 -0.51048756 0.27508926 -0.83694315
-0.96657085 -0.1280622 0.03677682 -0.2130396 -0.5103313 0.12295256 -0.6244875 -0.923321
-0.44363302 0.0177644 0.29500955 -0.6259339 -0.047879517 0.28693315 -0.23444204 -0.17656697
0.45418602 0.15380688 -0.31038287 -0.24037838 -0.13318358 -0.0623002 -0.22103783 0.2395312
-0.47759187 -0.23057103 -0.08901852 -0.031656176 -0.58853865 0.03597747 0.026692659 -0.66914093
0.11787892 -0.11643548 -0.47083145 0.5375627 -0.28537503 -0.27428842 0.28588083 0.18043277
-0.87890315 -0.37090012 -1.2810656 -0.116497844 -0.16254024 -0.26635206 0.07717833 -0.32448843
-0.13666289 -0.0050076796 0.1585692 0.013811075 -0.24652916 -0.0670325 0.2009749 0.43528223
0.08854648 0.14407976 0.12742463 -0.4474727 -0.5515118 -0.4476732 -0.39758977 -0.68722004
-0.13916934 -0.021802949 0.20919421 0.29821298 0.35927448 -0.10945592 -0.81440043 -0.29852766
-0.054100245 -0.1730725 -0.31089282 -0.096068144 -0.3152077 -0.32727954 -0.0126054585 -0.042211533
-0.26156953 0.0133645 -0.11189861 -0.24662386 -0.10557862 -0.11384478 0.079039805 0.009819887
-0.56606334 -0.2177909 0.079216026 0.24942763 -0.7876903 0.42720777 -0.51346934 -1.2368988
-1.6410233 -0.9546285 -0.09995222 -0.12698889 0.07850146 -0.32976836 -0.30239043 -0.21174717
0.006073028 -0.22885875 -0.26580903 0.08052988 -0.6908298 -1.2621304 0.17961372 -0.7553576
-0.12460379 -1.0169005 -0.69920665 -0.5524675 -0.023434732 -0.1537192 -0.16069826 -0.18315005
-0.019198915 -0.29584053 0.08106509 -0.40022248 0.15862429 -0.20240398 -0.46424022 -0.20469229
-0.07201076 -0.22850688 0.18908088 -0.48821214 0.005863716 -0.0825301 0.2158296 -0.2316524
-0.54167217 0.07780362 -0.06759887 -0.43822503 -0.22404788 0.26494455 0.21185581 -0.22273037
-0.16581336 -0.42293555 -0.95029795 -0.7729784 -0.4920538 0.019818418 0.27202514 -0.44499463
-0.00717169 -0.09073611 -0.04626023 0.060569208 -0.14937408 0.007078944 -0.1551322 -0.39956403
0.16859807 -0.3913607 -0.54585445 0.058171265 -0.059844553 -0.3433755 0.20622678 -0.15159303
-0.03879772 -0.1737371 -0.5376989 -0.15636358 -0.13115719 -0.19438984 0.10274734 0.26199684
-0.65943104 -0.96374905 -0.08097751 0.0062989574 -0.49917912 -0.4585406 -0.22345783 -0.31125543
0.054675646 -0.48458585 -0.38200298 0.47729093 -0.13437088 -0.6094429 -0.7564361 0.27584103
00000000: 1038 bfbe 9c93 33bf eb55 c3be 2d80 96be
00000010: 05df 19be 8a85 edbe 185e b93d 8869 f83e
00000020: 44af b43e 17a7 223e 109d 1a3e a3b8 30bf
00000030: 0592 d93b 8ab9 65be 9b03 a4bd 858e ae3e
00000040: 4161 793d a08c 27bf 3c7c 063d 4e52 b73e
00000050: c426 80be f8d4 03bf 1d55 ca3e a471 43bf
00000060: c407 c3bf 71f8 82bf c08d 01c0 d850 9ebe
00000070: 674c b03e 982c 813e 87ac e33e 5dd0 cc3e
00000080: 1615 bbbd f8a9 1a3f bd5e adbe dd81 b5be
00000090: 9bf5 943b 6a19 dd3c 724a 3bbf 497b 0e3d
000000a0: 9f6e 243e e77b b1be 549b 0fbf 1b4c 843e
000000b0: 30a7 e43d 135e 6ebb 5f3e acbe 95ea b7be
000000c0: 3f6c 2a3e 7374 c1bd 91a0 d0be 52a1 30be
000000d0: 7f20 023e ab0f fabe 382b 28be 22ad 20be
000000e0: df24 3dbf df63 81be f2d2 edbe 0877 32bf
000000f0: 411f 223d 50af 02bf 80d8 8c3e e841 56bf
00000100: 3071 77bf bd22 03be 4aa3 163d 0e27 5abe
00000110: 12a5 02bf 8dce fb3d 6ade 1fbf c45e 6cbf
00000120: de23 e3be a686 913c 7e0b 973e 343d 20bf
00000130: 501d 44bd e7e8 923e 9311 70be f9cd 34be
00000140: 128b e83e 8d7f 1d3e 81ea 9ebe c025 76be
00000150: 4761 08be 7f2e 7fbd be57 62be ab47 753e
00000160: ec86 f4be d01a 6cbe 584f b6bd e8a9 01bd
00000170: 78aa 16bf 1d5d 133d 90aa da3c d24c 2bbf
00000180: 816a f13d ba75 eebd d210 f1be b69d 093f
00000190: ad1c 92be 886f 8cbe f95e 923e 5ec3 383e
000001a0: ccff 60bf 9fe6 bdbe f5f9 a3bf 6c96 eebd
000001b0: f370 26be 4c5f 88be ac0f 9e3d 5923 a6be
000001c0: 5bf1 0bbe 7617 a4bb f75f 223e d947 623c
000001d0: 2472 7cbe 5648 89bd 5dcc 4d3e 50dd de3e
000001e0: db57 b53d a589 133e 9a7b 023e 241b e5be
000001f0: e12f 0dbf 6c35 e5be e390 cbbe a7ed 2fbf
00000200: 6882 0ebe 199c b2bc 0237 563e 5faf 983e
00000210: d3f2 b73e 6d2a e0bd 8c7c 50bf 9ed8 98be
00000220: 3898 5dbd eb39 31be 582d 9fbe 60bf c4bd
00000230: e762 a1be 2f91 a7be 2087 4ebc 00e6 2cbd
00000240: 71ec 85be c7f6 5a3c 192b e5bd f78a 7cbe
00000250: 9b39 d8bd 7427 e9bd 9fdf a13d 97e3 203c
00000260: 87e9 10bf 9404 5fbe 033c a23d f569 7f3e
00000270: 12a6 49bf faba da3e ba72 03bf b352 9ebf
00000280: 0d0d d2bf 8962 74bf c0b3 ccbd 6009 02be
00000290: 60c5 a03d 66d7 a8be ebd2 9abe 40d4 58be
000002a0: 4000 c73b f359 6abe 1f18 88be daec a43d
000002b0: 39da 30bf 7d8d a1bf a9ec 373e 1e5f 41bf
000002c0: 4630 ffbd cc29 82bf 35ff 32bf 836e 0dbf
000002d0: 32fa bfbc 9168 1dbe 168e 24be b08b 3bbe
000002e0: 0b47 9dbc 6978 97be 7405 a63d f6e9 ccbe
000002f0: 686e 223e fd42 4fbe e5b0 edbe db9a 51be
00000300: 617a 93bd b5fd 69be 6b9e 413e f1f6 f9be
00000310: 6a24 c03b 8b05 a9bd 6f02 5d3e 4936 6dbe
00000320: 07ab 0abf 8157 9f3d 4771 8abd 085f e0be
00000330: cf6c 65be d0a6 873e bbf0 583e 6e13 64be
00000340: faca 29be 028b d8be ba46 73bf eae1 45bf
00000350: 7aee fbbe 3c5a a23c e146 8b3e 56d6 e3be
00000360: 7f00 ebbb dbd3 b9bd 5e7b 3dbd 6b17 783d
00000370: 85f5 18be 7cf6 e73b fada 1ebe a893 ccbe
00000380: f9a4 2c3e 6e60 c8be 1ebd 0bbf fe44 6e3d
00000390: 901f 75bd eace afbe 1d2d 533e 343b 1bbe
000003a0: 5cea 1ebd 23e8 31be a3a6 09bf c61d 20be
000003b0: 124e 06be 210e 47be 336d d23d 7324 863e
000003c0: 79d0 28bf 42b8 76bf 89d7 a5bd 7c67 ce3b
000003d0: 6894 ffbe d5c5 eabe 21d2 64be df5c 9fbe
000003e0: 92f3 5f3d a31b f8be e595 c3be 7a5f f43e
000003f0: 8598 09be 7304 1cbf cca5 41bf 093b 8d3e

conv1.bias f4 [32]
-0.14854099 -0.7183572 0.14365897 -0.89484644 -0.62343675 -0.37142566 -0.35421818 -0.17270818
-0.5976014 -0.41205537 -0.22773254 -0.07467096 -0.3316047 -0.022050027 -0.82358223 -0.26491377
-0.1055883 -0.4767067 -0.2926868 -0.28775615 -0.2822356 -0.19573376 -0.7917123 -0.32920983
-0.22534318 -0.2701796 -0.2992875 -0.054912906 -0.08988429 -0.2851634 0.08101576 -0.23727177
00000000: 211b 18be 42e6 37bf 561b 133e a814 65bf
00000010: 8d99 1fbf 812b bebe 165c b5be 6ada 30be
00000020: 68fc 18bf ecf8 d2be b832 69be 17ed 98bd
00000030: 17c8 a9be 42a2 b4bc 49d6 52bf c7a2 87be
00000040: ae3e d8bd e712 f4be 0bdb 95be c654 93be
00000050: 2f81 90be 6e6e 48be a8ad 4abf 318e a8be
00000060: 5dc0 66be fb54 8abe 363c 99be 5bec 60bd
00000070: 4115 b8bd f000 92be 97eb a53d 5ff7 72be

conv2.weight f4 [64, 32, 3, 3]
0.26933682 0.3770009 0.089229204 0.106887035 0.25769365 0.43699765 0.15507849 -0.093545325
0.29599476 0.3213119 -0.15616883 -0.02174141 -0.5136943 -0.3426331 0.24847011 -0.1549939
-0.6262554 -0.5177536 -0.99662894 0.35587123 0.4391242 0.11299158 0.26004624 -1.1520131
0.13962173 0.8138093 -2.1737242 -0.15930352 0.4965514 -1.1985447 0.20979555 -0.08645368
-0.08288919 0.13815503 0.29793233 -0.3498193 0.040225275 -0.15933627 -0.05576946 0.16042586
0.19643763 0.14186208 -0.041614786 -0.07294744 -0.11781658 0.39711976 -0.06635411 0.10808541
-0.52269053 -0.02892758 -0.13861053 0.065769516 -0.15461504 -0.13982 0.016033495 -0.019755049
-0.18684186 -0.19585878 -0.11999591 0.3141302 -0.36040553 -0.22309333 -0.2284753 -0.50663745
-0.52941936 -0.18217728 -0.07743717 -0.11380486 -0.2208747 -0.5019077 -0.09113953 0.65019244
0.22140715 0.54481393 1.1594554 -0.12685503 -0.6812473 -0.9565882 -0.5916902 -0.8948896
0.5667487 0.109612055 -0.15253028 -0.25891566 -0.22591783 -0.16226147 -0.085546695 -0.09111099
-0.17989248 -0.04485582 -0.044403553 -0.28372353 -0.23118564 -0.30115527 -0.29114866 -0.12674786
-0.16686623 -0.17426546 -0.1731683 0.1773312 -0.13477837 0.054508995 -0.04600032 -1.1372212
-1.3914067 0.124036856 -0.27433345 -2.548679 0.07582736 -0.0002907096 -0.030429695 -0.018772196
0.07675578 0.04938559 -0.14503078 0.10316681 0.0059695006 -0.55425876 -0.17882994 -0.76607275
0.328519 0.14622393 -0.31011045 0.06759434 1.2251178 -0.52321965 0.48610803 0.16098607
-0.27385136 0.25962022 -0.06326636 -0.040600613 0.20372564 -0.13702618 -0.20940688 -0.057831924
0.03817701 -0.05646332 0.047424976 -0.023126595 0.050275538 -0.022829022 0.057257134 -0.039182782
0.11149531 -0.068238564 0.0475974 0.021310244 -0.02224264 -0.028479451 -0.10748263 -0.07924051
-0.120693535 -0.58977085 -0.15434916 -0.63357705 0.29843566 1.1565785 -0.37920487 0.24319774
0.31751376 -0.053661548 0.004697066 0.025457907 -0.0020365156 0.021231528 0.009025622 0.05862351
0.0072947554 -0.05582324 -0.057305172 0.2966337 -0.068691924 0.41966486 -0.4932808 -1.5798562
-0.8940927 -0.09633011 -0.74398565 -1.4791797 -0.054779153 -0.08517529 0.13318798 0.15243526
0.002103076 -0.029142654 -0.081248395 -0.01764591 0.025579423 -0.011786668 -0.18514705 -0.19212353
-0.06192161 -0.014096666 0.015316093 -0.12754788 -0.1251952 0.16553588 -0.052543625 -0.335798
-0.16134332 0.13730498 -0.017602282 0.4651666 -0.6137166 -0.028832538 -0.3415708 0.45628476
0.3056634 0.45078528 -0.066083714 0.40762028 0.41148227 -0.46422812 -0.2582276 -0.079597354
-0.11857057 -0.067250565 0.107357025 0.11169086 0.034103893 0.035183143 0.038278356 -0.008088739
0.28730673 0.2868117 0.054155312 0.058624327 -0.15871477 -0.21813264 -0.048233382 -0.15427701
-0.27109468 0.12131145 -0.008086761 -0.018302424 0.38590696 0.08529142 -0.012082501 -0.29164654
-0.29023677 -0.067394085 0.122794665 -0.56712556 -0.74503887 -0.33561215 -0.20494793 -1.7973565
-1.3463767 0.07612937 -0.18020739 -0.39108667 -0.21213652 -0.37413925 0.08116541 -0.40585092
00000000: 84e6 893e 4306 c13e cdbd b63d 97e7 da3d
00000010: 6cf0 833e 28be df3e e5cc 1e3e b194 bfbd
00000020: a08c 973e fe82 a43e b9ea 1fbe 0b1b b2bc
00000030: 7881 03bf 9b6d afbe f36e 7e3e b9b6 1ebe
00000040: 4652 20bf 808b 04bf 1323 7fbf c134 b63e
00000050: e3d4 e03e 2168 e73d c824 853e 2a75 93bf
00000060: 00f9 0e3e ce55 503f 4c1e 0bc0 7620 23be
00000070: fc3b fe3e ea69 99bf a5d4 563e a10e b1bd
00000080: cfc1 a9bd 8378 0d3e 968a 983e 841b b3be
00000090: 42c3 243d 0c29 23be 846e 64bd ad46 243e
000000a0: f226 493e 4b44 113e 4474 2abd 7865 95bd
000000b0: d249 f1bd 4853 cb3e aae4 87bd e25b dd3d
000000c0: 0ccf 05bf 88f9 ecbc ebef 0dbe 2bb2 863d
000000d0: 6853 1ebe f92c 0fbe ad58 833c 57d5 a1bc
000000e0: 7953 3fbe 348f 48be 6ac0 f5bd acd5 a03e
000000f0: 1387 b8be 9472 64be 6ef5 69be feb2 01bf
00000100: 0788 07bf ae8c 3abe 6197 9ebd 8612 e9bd
00000110: fa2c 62be 067d 00bf 5da7 babd 0373 263f
00000120: 8eb8 623e ed78 0b3f 0969 943f 49e6 01be
00000130: 3966 2ebf f7e2 74bf 0279 17bf 7c17 65bf
00000140: 7116 113f 497c e03d e630 1cbe 9890 84be
00000150: 0157 67be df27 26be 1b33 afbd 6698 babd
00000160: bc35 38be bcba 37bd 80e0 35bd 3644 91be
00000170: eebb 6cbe 0631 9abe 7011 95be 31ca 01be
00000180: fbde 2abe a572 32be 0853 31be 4f96 353e
00000190: 5703 0abe d344 5f3d d56a 3cbd 7790 91bf
000001a0: 9d19 b2bf 0907 fe3d 6f75 8cbe 8f1d 23c0
000001b0: 604b 9b3d 626a 98b9 b247 f9bc 26c8 99bc
000001c0: 2232 9d3d 8b48 4a3d f382 14be 1f49 d33d
000001d0: cd9b c33b e7e3 0dbf 321f 37be 581d 44bf
000001e0: a433 a83e babb 153e ccc6 9ebe e76e 8a3d
000001f0: a9d0 9c3f b9f1 05bf 27e3 f83e 88d9 243e
00000200: 3f36 8cbe f1ec 843e cb91 81bd d44c 26bd
00000210: 749d 503e 9750 0cbe c26e 56be 2be1 6cbd
00000220: 7f5f 1c3d 1546 67bd b140 423d fc73 bdbc
00000230: b9ed 4d3d ee03 bbbc 7586 6a3d 207e 20bd
00000240: a757 e43d a9c0 8bbd 7ef5 423d d292 ae3c
00000250: 3236 b6bc bd4d e9bc da1f dcbd d948 a2bd
00000260: 2c2e f7bd 39fb 16bf b50d 1ebe 1b32 22bf
00000270: 8fcc 983e c40a 943f 2427 c2be d408 793e
00000280: 2a91 a23e 36cc 5bbd d8e9 993b 1a8d d03c
00000290: 1077 05bb beed ad3c 34e0 133c 351f 703d
000002a0: d808 ef3b e9a6 64bd d4b8 6abd 5fe0 973e
000002b0: 5aae 8cbd 50de d63e 4d8f fcbe ba38 cabf
000002c0: 42e3 64bf b948 c5bd d875 3ebf c355 bdbf
000002d0: 1b60 60bd 6270 aebd 6e62 083e fd17 1c3e
000002e0: c3d3 093b 93bc eebc 8f65 a6bd 288e 90bc
000002f0: f08b d13c de1c 41bc 3097 3dbe 08bc 44be
00000300: 84a1 7dbd b4f5 66bc 5af0 7a3c e99b 02be
00000310: 2c33 00be 3d82 293e fc37 57bd b7ed abbe
00000320: 2f37 25be ad99 0c3e a932 90bc 512a ee3e
00000330: 881c 1dbf 3732 ecbc 5ee2 aebe 289e e93e
00000340: ea7f 9c3e 54cd e63e e656 87bd 9bb3 d03e
00000350: cead d23e 4faf edbe 6836 84be f003 a3bd
00000360: 21d5 f2bd aaba 89bd 00de db3d 2dbe e43d
00000370: 86b0 0b3d 331c 103d c4c9 1c3d a186 04bc
00000380: de19 933e fcd8 923e f6d1 5d3d 1020 703d
00000390: 2086 22be 2a5e 5fbe 5e90 45bd cbfa 1dbe
000003a0: eccc 8abe 2372 f83d 567e 04bc f7ee 95bc
000003b0: 9995 c53e 45ad ae3d aff5 45bc b252 95be
000003c0: ea99 94be e905 8abd c57b fb3d 242f 11bf
000003d0: deba 3ebf 5bd5 abbe dfdd 51be c70f e6bf
000003e0: 1256 acbf b7e9 9b3d 4988 38be 833c c8be
000003f0: 513a 59be 2e8f bfbe 0d3a a63d b1cb cfbe

conv2.bias f4 [64]
0.13935779 -0.05178874 -0.08584254 -0.41497108 -0.44877845 -0.1707323 -0.076823935 -0.2641023
-0.058720775 -0.11661774 -0.16563213 -0.2739557 0.044198915 -0.2711994 -0.23970751 -0.13083357
-0.2690415 -0.19944337 -0.1410112 -0.08375822 -0.19783257 -0.07852787 -0.044343106 -0.29508743
-0.06875789 -0.071456484 -0.46776932 -0.14789069 -0.051413715 -0.24169135 0.44911617 -0.32779762
-0.51331776 -0.7297335 -0.16858453 -0.13357458 -0.12544487 -0.097198665 -0.11729779 0.10911989
-0.16253181 -0.23529604 -0.080467805 -0.34002638 -0.06368576 -0.22657771 -0.13180247 -0.11502879
-0.15205416 -0.25144324 -0.33374447 0.17411205 -0.14751565 -0.34421667 -0.11550712 -0.35691106
-0.5780203 -0.18752714 -0.07270035 -0.113404945 -0.12960489 -0.12381068 -0.17663296 -0.31649774
00000000: cfb3 0e3e 6e20 54bd 37ce afbd 1777 d4be
00000010: 4ac6 e5be 73d4 2ebe de55 9dbd 6b38 87be
00000020: 3285 70bd 48d5 eebd 789b 29be ec43 8cbe
00000030: ec09 353d a6da 8abe e375 75be 3cf9 05be
00000040: cfbf 89be e23a 4cbe 3d65 10be 6e89 abbd
00000050: 9f94 4abe 38d3 a0bd 1ea1 35bd b315 97be
00000060: f0d0 8cbd c757 92bd 767f efbe a870 17be
00000070: 3097 52bd f07d 77be 8ef2 e53e 17d5 a7be
00000080: cb68 03bf d1cf 3abf 6ca1 2cbe c6c7 08be
00000090: 9f74 00be 1810 c7bd d339 f0bd 407a df3d
000000a0: bd6e 26be 72f1 70be 4ecc a4bd f017 aebe
000000b0: ae6d 82bd fd03 68be 3af7 06be 3794 ebbd
000000c0: 16b4 1bbe 2bbd 80be 8ee0 aabe 6e4a 323e
000000d0: 580e 17be 2b3d b0be ff8e ecbd 0cbd b6be
000000e0: 23f9 13bf 1d07 40be ece3 94bd da40 e8bd
000000f0: 25b7 04be 7490 fdbd 45df 34be fe0b a2be

conv3.weight f4 [128, 64, 3, 3]
-0.6313148 -0.09721951 -0.627711 -0.5423532 -0.3659015 -0.5683295 -0.642693 -0.48648223
0.037497602 -0.06679637 -0.019049464 -0.05868692 -0.06705564 -0.09739594 -0.09695751 -0.043628056
0.052795116 -0.03705904 -0.031748332 -0.051902633 -0.076931365 -0.059981026 -0.08305763 -0.07530192
-0.09553543 -0.07784179 -0.07248638 -0.06277281 -0.05262073 -0.027160108 -0.071548626 -0.025724664
-0.042421106 -0.023553507 -0.09546242 -0.037127744 -0.07125478 0.02924933 0.018680183 -0.06522756
0.075586215 0.05552472 0.09856109 0.02184374 -0.07922653 -0.05830302 -0.018893693 -0.039070416
-0.092989445 0.065915644 -0.078487754 -0.062521525 -0.022191692 -0.08670581 -0.07984398 -0.2871004
-0.055028334 -0.40931344 -0.564706 -0.3886948 0.25896555 0.28595355 0.04422263 -0.750072
-0.42306462 -0.069744945 -0.32585555 -0.31839868 0.20059186 -0.09955937 -0.1879392 0.1105954
-0.060395755 -0.03914032 -0.05515228 -0.08983102 -0.047389537 -0.09543794 -0.021432415 -0.08578864
-0.07462293 -0.19518171 -0.16653354 0.09655052 0.0123985 -0.027082423 0.27056745 0.035409864
-0.12731801 0.19924237 -0.04547591 -0.086551726 0.032170687 -0.07938262 -0.08647026 -0.03330351
-0.035505295 0.08510766 -0.021951376 -0.07243023 0.070594005 -0.06547828 -0.09327434 -0.043720562
-0.06942695 -0.097530365 -0.07499837 -0.08358234 -0.5126651 -0.3826065 -0.55434966 -0.6769723
-0.46056083 -0.64186215 -0.61917317 -0.059698276 -0.57446253 -0.03676717 -0.04740269 -0.096297525
-0.031226162 -0.040362563 -0.026857182 -0.036291514 -0.067667894 -0.079352446 -0.03384311 -0.019404227
-0.026289877 -0.071186095 -0.033100363 -0.042480968 -0.05044575 -0.026570244 -0.04089116 -0.09887597
-0.058558773 -0.051415533 -0.068258524 -0.07605561 -0.041696455 -0.01851733 -0.0391216 -0.058272075
-0.032759883 -0.0918925 -0.056410935 -0.06629005 -0.03511174 -0.07873197 -0.021498805 -0.06996363
-0.077969655 -0.04774656 -0.09222989 -0.032390036 -0.09485469 -0.090146616 -0.096949555 -0.06809137
-0.09273979 -0.062855095 -0.4463349 -0.20743938 -0.42647514 -0.3147367 -0.14432682 -0.5342387
-0.10128147 -0.15917236 -0.53762174 -0.0690787 -0.048522927 -0.05179629 -0.03700604 -0.04019704
-0.08523917 -0.078726634 -0.027861953 -0.05317059 -0.04378454 -0.03823482 -0.062281467 -0.0566642
-0.023928054 -0.07275202 -0.059002385 -0.07463839 -0.060621344 -0.051740423 -0.033635892 -0.05077428
-0.023424868 -0.076250784 -0.08297511 -0.0523188 -0.050023943 -0.08354226 -0.02089733 -0.047375098
-0.019521862 -0.083637185 -0.09470774 -0.020626808 -0.07566352 -0.035506453 -0.068610236 0.49927366
-0.34693727 0.0822889 -0.40040606 -0.33109877 -0.004392154 0.039119054 -0.31271207 -0.090498626
-0.030541055 -0.074928224 -0.025300661 -0.027482292 -0.072227195 -0.027713446 -0.034600884 -0.028361417
-0.06994716 -0.037699647 -0.06745036 -0.07181023 -0.095123336 -0.062681995 -0.046015844 -0.022807354
-0.051243566 -0.023353618 -0.073782325 -0.07200278 -0.049956605 -0.08425903 -0.0893973 -0.08413327
-0.05299566 -0.100535974 -0.06517756 -0.0233151 0.04295768 -0.06423326 -0.03135882 -0.053604674
-0.07761351 -0.09565859 -0.029649105 -0.021251455 -0.038822293 -0.03804564 -0.081052415 -0.05409631
00000000: d99d 21bf 061b c7bd abb1 20bf a9d7 0abf
00000010: 7157 bbbe 0b7e 11bf 8787 24bf 3314 f9be
00000020: 1697 193d 89cc 88bd 9f0d 9cbc b261 70bd
00000030: 7854 89bd 8677 c7bd a991 c6bd 55b3 32bd
00000040: b13f 583d 38cb 17bd 8a0a 02bd db97 54bd
00000050: 318e 9dbd aaae 75bd 1e1a aabd e537 9abd
00000060: 14a8 c3bd 846b 9fbd bd73 94bd 088f 80bd
00000070: d688 57bd e07e debc 1688 92bd 88bc d2bc
00000080: c1c1 2dbd 49f3 c0bc cd81 c3bd 4313 18bd
00000090: 07ee 91bd 4a9c ef3c 2f07 993c 0796 85bd
000000a0: f2cc 9a3d e46d 633d 66da c93d a5f1 b23c
000000b0: 8541 a2bd 26cf 6ebd f2c6 9abc 4d08 20bd
000000c0: 4071 bebd c8fe 863d 30be a0bd 490b 80bd
000000d0: 5acb b5bc d192 b1bd 3e85 a3bd d3fe 92be
000000e0: 6465 61bd 8891 d1be 9390 10bf 0103 c7be
000000f0: 2297 843e 8168 923e ca22 353d b804 40bf
00000100: ed9b d8be 70d6 8ebd 8ad6 a6be 2705 a3be
00000110: f467 4d3e c8e5 cbbd 2273 40be d77f e23d
00000120: 8a61 77bd 9a51 20bd 5be7 61bd 53f9 b7bd
00000130: 881b 42bd f774 c3bd 0893 afbc f4b1 afbd
00000140: e8d3 98bd b7dd 47be c587 2abe 47bc c53d
00000150: 1423 4b3c f5db ddbc d187 8a3e ef09 113d
00000160: a75f 02be 3106 4c3e f344 3abd 0842 b1bd
00000170: 69c5 033d 5b93 a2bd 5217 b1bd 4369 08bd
00000180: 006e 11bd ed4c ae3d 5fd3 b3bc 4d56 94bd
00000190: 9793 903d 7a19 86bd 9e06 bfbd 5514 33bd
000001a0: b72f 8ebd 00be c7bd bf98 99bd 382d abbd
000001b0: 053e 03bf 00e5 c3be dce9 0dbf 0f4e 2dbf
000001c0: a1ce ebbe 1451 24bf 2282 1ebf 2e86 74bd
000001d0: fa0f 13bf 2c99 16bd 5329 42bd a337 c5bd
000001e0: 02ce ffbc 3753 25bd 9803 dcbc 69a6 14bd
000001f0: 7795 8abd 8983 a2bd 139f 0abd 9df5 9ebc
00000200: de5d d7bc 04ca 91bd 3f94 07bd 8600 2ebd
00000210: 34a0 4ebd d7a9 d9bc 7d7d 27bd 7c7f cabd
00000220: 53db 6fbd 1899 52bd 20cb 8bbd 0bc3 9bbd
00000230: e7c9 2abd a8b1 97bc f93d 20bd b3ae 6ebd
00000240: 3a2f 06bd 2332 bcbd 270f 67bd 14c3 87bd
00000250: 54d1 0fbd 3a3e a1bd 431e b0bc 1749 8fbd
00000260: 8eae 9fbd e691 43bd 06e3 bcbd 6aab 04bd
00000270: 2d43 c2bd ca9e b8bd 7d8d c6bd 7d73 8bbd
00000280: 5cee bdbd 2cba 80bd 0286 e4be fd6a 54be
00000290: f35a dabe 2b25 a1be 69ca 13be dec3 08bf
000002a0: a96c cfbd 14fe 22be 94a1 09bf 2279 8dbd
000002b0: fabf 46bd 5928 54bd a593 17bd a7a5 24bd
000002c0: e091 aebd 6e3b a1bd c03e e4bc 68c9 59bd
000002d0: 6b57 33bd 1d9c 1cbd da1a 7fbd b818 68bd
000002e0: c404 c4bc 03ff 94bd 7cac 71bd 03dc 98bd
000002f0: 164e 78bd c4ed 53bd cac5 09bd b1f8 4fbd
00000300: 82e5 bfbc 5f29 9cbd dbee a9bd 3d4c 56bd
00000310: e8e5 4cbd 3418 abbd e130 abbc 640c 42bd
00000320: 50ec 9fbc f949 abbd 22f6 c1bd 8df9 a8bc
00000330: 7af5 9abd 376f 11bd 8683 8cbd cca0 ff3e
00000340: c3a1 b1be 1587 a83d 0602 cdbe c785 a9be
00000350: 0fec 8fbb 4d3b 203d cc1b a0be 5857 b9bd
00000360: 3c31 fabc f873 99bd 5543 cfbc 8b22 e1bc
00000370: daeb 93bd 4f07 e3bc a8b9 0dbd 3456 e8bc
00000380: 7540 8fbd f26a 1abd 6a23 8abd 3e11 93bd
00000390: 06d0 c2bd 6b5f 80bd 1c7b 3cbd 7dd6 babc
000003a0: c6e4 51bd 1650 bfbc 301b 97bd 3276 93bd
000003b0: 4c9f 4cbd 0090 acbd ee15 b7bd 104e acbd
000003c0: fa11 59bd cee5 cdbd d07b 85bd 4fff bebc
000003d0: 64f4 2f3d ba8c 83bd 1b72 00bd 9390 5bbd
000003e0: d5f3 9ebd a7e8 c3bd aee2 f2bc 8817 aebc
000003f0: 2004 1fbd bfd5 1bbd cffe a5bd 1894 5dbd

conv3.bias f4 [128]
-0.35414857 -0.4943304 -0.74611384 -0.098231815 -0.44596356 -0.2838929 -0.39206496 -0.076693684
-0.57505274 -0.9037383 -0.67539215 -0.27039602 -0.58241576 -0.36754146 -0.07053741 -0.67123216
-0.21706733 -0.80273324 -0.078582756 -0.06453644 -1.0396147 -0.9541741 -0.30702856 -0.32744506
-1.4016991 -0.9261454 -0.10414965 0.28856242 -0.587698 -0.51290137 -0.12086271 -0.06947336
0.019562438 -1.0223724 0.45830694 -0.111877024 -0.9422977 -0.6027658 -0.51377136 -0.06508501
-0.038318723 -0.48474422 -0.33372417 -0.66649204 0.2555825 -0.15514933 -0.30455738 -1.2818764
-0.064565726 -0.3842443 -0.4961956 -0.068329506 0.60613924 -0.20168756 -0.38354504 -0.47167
-0.50080246 -0.59979844 0.29120436 -0.17242874 -0.079227924 -0.08400037 -0.8970272 -0.42880604
-0.31545672 0.016993642 -0.09784649 -0.110894 -0.09648316 0.33788776 -0.08572062 -0.032338366
0.23828441 0.097298354 -0.7492018 -0.6117762 -0.7126939 -0.63006455 -0.114631675 -0.7069411
-0.024444014 -0.10001008 -0.30853996 0.28049058 -0.42608574 -0.95216197 0.046859987 0.36921066
-0.19712725 -0.19947214 -0.47660276 -0.5096298 -1.0439737 -0.492337 -0.1293768 -0.99678767
0.2674914 -0.5498934 -0.20300598 -0.3631448 -0.28572518 -0.40732569 0.33408096 -0.45134902
-0.6103755 -0.019998912 -0.4658637 -0.26427782 -0.16971219 -0.08553979 -0.09742079 -0.51481706
-0.5430375 -0.52078295 -0.444058 -0.063119076 -0.23458694 -0.082044624 -0.10833312 -0.109625794
-0.49310198 -0.6110617 -0.6293727 -0.4446195 0.17949398 -0.2153614 -0.11091611 0.09438645
00000000: f652 b5be e018 fdbe 5101 3fbf c32d c9bd
00000010: 5655 e4be 695a 91be bdbc c8be 9411 9dbd
00000020: a836 13bf 655b 67bf 80e6 2cbf 5971 8abe
00000030: 3319 15bf 652e bcbe eb75 90bd dfd5 2bbf
00000040: e646 5ebe ed7f 4dbf ffef a0bd ae2b 84bd
00000050: 1812 85bf c144 74bf d932 9dbe e1a6 a7be
00000060: e06a b3bf dd17 6dbf 694c d5bd 74be 933e
00000070: 6073 16bf 814d 03bf de86 f7bd 0d48 8ebd
00000080: 6841 a03c 19dd 82bf 35a7 ea3e c81f e5bd
00000090: 6c3a 71bf dc4e 1abf 8586 03bf 4a4b 85bd
000000a0: 18f4 1cbd 6530 f8be e5dd aabe 399f 2abf
000000b0: b6db 823e 77df 1ebe f2ee 9bbe 8714 a4bf
000000c0: 093b 84bd abbb c4be 5a0d febe 57f0 8bbd
000000d0: f12b 1b3f 2f87 4ebe 0460 c4be bb7e f1be
000000e0: 9734 00bf 648c 19bf bd18 953e 2991 30be
000000f0: 4042 a2bd 6308 acbd 93a3 65bf 778c dbbe
00000100: 8b83 a1be 4036 8b3c be63 c8bd 651c e3bd
00000110: f798 c5bd a0ff ac3e 4b8e afbd 3c75 04bd
00000120: d400 743e 5c44 c73d b0cb 3fbf 5d9d 1cbf
00000130: 1c73 36bf e94b 21bf 03c4 eabd 18fa 34bf
00000140: d03e c8bc 16d2 ccbd f3f8 9dbe 769c 8f3e
00000150: e927 dabe e3c0 73bf 42f0 3f3d 2e09 bd3e
00000160: badb 49be 6d42 4cbe 4705 f4be 1977 02bf
00000170: eea0 85bf 9813 fcbe 5a7b 04be 7a2d 7fbf
00000180: a2f4 883e d0c5 0cbf cde0 4fbe 1dee b9be
00000190: 924a 92be fe8c d0be a90c ab3e 3817 e7be
000001a0: 9241 1cbf c2d4 a3bc b085 eebe 6c4f 87be
000001b0: 08c9 2dbe 7c2f afbd 8d84 c7bd 0dcb 03bf
000001c0: 8104 0bbf 0852 05bf 925b e3be 9344 81bd
000001d0: 8f37 70be 0307 a8bd c1dd ddbd 7d83 e0bd
000001e0: dd77 fcbe 8a6e 1cbf 921e 21bf 2ba5 e3be
000001f0: 45cd 373e b387 5cbe fc27 e3bd af4d c13d

fc1.weight f4 [10, 128]
-0.23727578 -0.38260898 -0.05979163 0.09804492 -0.5006648 -0.6798506 -0.08694061 -0.039168805
-0.10064598 -0.035929184 -0.87177813 0.07876725 -0.03311458 0.17805357 -0.0124528045 -0.5102402
0.019009236 -0.23578726 0.10869784 -0.10487844 -0.14519316 0.10109701 0.18566167 -0.94150966
-0.2387531 -0.29644337 0.099377245 0.29692474 -0.09472779 0.44378605 -0.27344075 0.058257453
-0.6029815 0.09205418 -0.29541764 -0.13260801 -0.46719396 -0.16003297 -0.20869902 0.002633627
-0.041093096 0.023434043 0.2619629 -0.14282481 -0.7343656 0.13097824 -0.42709744 -0.33577684
0.09555101 -0.07667974 0.1622116 -0.024250284 0.0016069929 -0.7443971 -0.21906026 -0.4719707
-0.8813889 0.17526412 0.25479805 -0.21612442 -0.10369039 0.31291434 0.3354603 -0.72833186
-0.25445664 0.18108547 0.021971112 0.12661168 -0.109876886 0.5681495 0.07630628 0.035868447
0.61407405 -0.12050136 0.22564971 -0.070646964 -0.17243409 -0.30755213 0.35847053 -0.40947452
-0.2010801 -0.5219546 -0.36535668 -0.49197695 -0.4045325 -0.0027439923 0.44148648 0.48959
-0.015975183 0.004515956 -0.5964778 -0.21536595 -0.9474354 0.438105 -0.1089088 0.14605683
-0.27240825 -0.020126428 0.017176628 -0.5060396 0.52185225 -0.37691095 0.40835467 0.07416739
0.11932317 0.1958573 0.29234865 -1.1663765 0.20557661 0.0060931295 -0.0010711609 -0.7173497
-0.6073035 -0.754254 -0.82982683 0.0041970983 -0.1834513 -0.015292624 0.015284667 -0.046584018
0.29956868 0.3618666 -1.0528642 0.15669255 0.052478734 0.08628546 0.06387101 -0.4374602
-0.20904163 -0.94586104 -0.37581825 0.08492067 -0.082754515 -0.31982958 0.16083997 -0.0054571005
-0.7182927 -1.1892495 -0.03674856 0.22020733 -0.43261594 -0.11807289 0.025222912 -0.3323358
0.009250857 -1.4090616 -0.08423252 0.016672105 0.40124252 -0.38518417 -0.053222943 0.14674011
-0.2235381 0.16760609 -0.078019075 -0.74274045 -0.50975484 0.38166893 0.36198318 0.09849862
0.091296986 -0.5026903 0.49797323 -0.04891229 -0.23229718 -0.1889872 -0.44482306 -0.046808697
0.01598276 -0.059211638 -1.2083268 -0.010819524 0.36248463 -0.14097583 -0.18927856 -0.59656966
-0.09205439 -0.08847453 -0.23146608 -0.12754081 0.5686299 -0.61215556 -0.14410566 -0.16098548
-1.1590981 -0.33537138 0.3139376 -0.73054624 -0.0032023017 -0.33066133 -0.11861533 -0.6665511
-0.187244 -1.115727 -0.008708374 -0.009344697 -0.10528526 -1.6034589 -0.060296904 -0.014260394
-1.9605691 0.2789337 -0.4774479 -1.1761441 -0.29391107 -0.012569384 -0.3681233 -0.45987502
-0.80299026 0.2643811 -0.34752363 0.32785344 -0.6622543 -0.7028913 -1.2951816 -1.5159097
-0.040987834 0.07937636 -0.04216485 -0.76262194 0.13314082 -0.6809551 0.03165144 -1.0258887
0.50024164 0.34010231 0.06378482 -0.23351455 -0.51185626 -0.9822011 -1.225893 -0.33126932
-0.8667654 -0.47224835 -0.4710192 -0.16101687 0.4683891 -0.024706334 -0.005641713 -0.14286621
0.30822176 -0.48758888 -0.27620834 -0.0048783147 0.1418043 -0.06699033 -0.032799367 -0.0065003145
-1.3603188 -0.7582088 -0.8021432 -0.4225732 0.49223632 -0.7473941 -0.97538763 0.27629924
00000000: 6cf8 72be 53e5 c3be 11e8 74bd c6cb c83d
00000010: 912b 00bf b00a 2ebf eb0d b2bd 786f 20bd
00000020: 7b1f cebd 7b2a 13bd da2c 5fbf b950 a13d
00000030: 27a3 07bd ad53 363e d906 4cbc 1a9f 02bf
00000040: 42b9 9b3c 3772 71be f99c de3d 82ca d6bd
00000050: 84ad 14be f30b cf3d 181e 3e3e c706 71bf
00000060: b17b 74be 6dc7 97be 4c86 cb3d 8506 983e
00000070: a500 c2bd ed37 e33e 6d00 8cbe 5e9f 6e3d
00000080: ff5c 1abf e786 bc3d fb40 97be 65ca 07be
00000090: 0c34 efbe afdf 23be 32b5 55be ee98 2c3b
000000a0: 3c51 28bd c0f8 bf3c 0020 863e ab40 12be
000000b0: 62ff 3bbf 291f 063e 84ac dabe f1ea abbe
000000c0: 3fb0 c33d 440a 9dbd cc1a 263e 88a8 c6bc
000000d0: bca1 d23a cf90 3ebf 5551 60be 25a6 f1be
000000e0: b4a2 61bf 7078 333e e474 823e b84f 5dbe
000000f0: a15b d4bd 4f36 a03e 74c1 ab3e f573 3abf
00000100: 2448 82be 786e 393e c3fc b33c 7ea6 013e
00000110: 2207 e1bd 3f72 113f 7846 9c3d cbea 123d
00000120: f533 1d3f 6bc9 f6bd b810 673e 5baf 90bd
00000130: 9092 30be 7977 9dbe 7389 b73e a5a6 d1be
00000140: f1e7 4dbe d19e 05bf 0810 bbbe 67e4 fbbe
00000150: e21e cfbe 8dd4 33bb 840a e23e 8aab fa3e
00000160: 63de 82bc 96fa 933b c5b2 18bf e488 5cbe
00000170: 208b 72bf 4c4f e03e 940b dfbd ec8f 153e
00000180: 1879 8bbe 2ee0 a4bc 00b6 8c3c d08b 01bf
00000190: 1c98 053f 79fa c0be dd13 d13e 13e5 973d
000001a0: b55f f43d d18e 483e b9ae 953e d34b 95bf
000001b0: ad82 523e e0a8 c73b 3266 8cba 3ba4 37bf
000001c0: 3e78 1bbf ca16 41bf 886f 54bf d087 893b
000001d0: a8da 3bbe ea8d 7abc 8a6c 7a3c e2ce 3ebd
000001e0: 1161 993e 9446 b93e 41c4 86bf 0374 203e
000001f0: f1f3 563d 6eb6 b03d cece 823d c9fa dfbe
00000200: 020f 56be f323 72bf 406b c0be e3ea ad3d
00000210: 337b a9bd b4c0 a3be 3cb3 243e 7ad1 b2bb
00000220: 08e2 37bf 5439 98bf a885 16bd 087e 613e
00000230: d67f ddbe 33d0 f1bd 48a0 ce3c eb27 aabe
00000240: e890 173c 215c b4bf 1982 acbd f093 883c
00000250: a96f cd3e dc36 c5be 4d00 5abd 0a43 163e
00000260: 2ce7 64be eea0 2b3e 77c8 9fbd 3d24 3ebf
00000270: 4b7f 02bf 1c6a c33e dc55 b93e a5b9 c93d
00000280: eaf9 ba3d 50b0 00bf 59f6 fe3e 4158 48bd
00000290: 50df 6dbe dc85 41be d9bf e3be 7aba 3fbd
000002a0: 47ee 823c e787 72bd 74aa 9abf 5f44 31bc
000002b0: 9697 b93e f85b 10be 3dd2 41be cab8 18bf
000002c0: 0387 bcbd 2232 b5bd 7205 6dbe 0f9a 02be
000002d0: bb91 113f 3ab6 1cbf 6f90 13be 61d9 24be
000002e0: 545d 94bf ccb5 abbe 6ebc a03e 1405 3bbf
000002f0: b5dd 51bb 714c a9be 98ec f2bd 18a3 2abf
00000300: e4bc 3fbe 24d0 8ebf 91ad 0ebc 801a 19bc
00000310: cc9f d7bd 243e cdbf e3f9 76bd 6da4 69bc
00000320: eef3 fabf 66d0 8e3e 0d74 f4be e48b 96bf
00000330: 837b 96be d1ef 4dbc a87a bcbe bd74 ebbe
00000340: c590 4dbf f65c 873e 9eee b1be 68dc a73e
00000350: 7f89 29bf aff0 33bf 83c8 a5bf 5409 c2bf
00000360: dce2 27bd 1390 a23d 0db5 2cbd 313b 43bf
00000370: 1156 083e 1353 2ebf f1a4 013d 5250 83bf
00000380: d60f 003f e421 ae3e 9ea1 823d 701e 6fbe
00000390: 0309 03bf 8871 7bbf 10ea 9cbf 229c a9be
000003a0: 56e4 5dbf 89ca f1be 6e29 f1be 9be1 24be
000003b0: b2d0 ef3e f064 cabc 1ede b8bb 854b 12be
000003c0: 3ecf 9d3e 40a5 f9be 2e6b 8dbe 45da 9fbb
000003d0: 2535 113e 3a32 89bd a158 06bd 9700 d5bb
000003e0: ed1e aebf f919 42bf 4259 4dbf 845b d8be
000003f0: 6606 fc3e 3855 3fbf 01b3 79bf 1877 8d3e

fc1.bias f4 [10]
0.56324214 1.9862971 -0.8128349 -0.45609146 0.23887081 -0.05471939 -1.2611152 1.2849511
-0.4426489 -0.52001506
00000000: a330 103f fc3e fe3f f315 50bf d284 e9be
00000010: 8d9a 743e 7021 60bd 396c a1bf 4779 a43f
00000020: e0a2 e2be b51f 05bf
